__________________________________________________________________________________________________
Layer (type)                    Output Shape         Param #     Connected to                     
==================================================================================================
input_1 (InputLayer)            (None, 299, 299, 3)  0                                            
__________________________________________________________________________________________________
conv2d (Conv2D)                 (None, 149, 149, 32) 864         input_1[0][0]                    
__________________________________________________________________________________________________
batch_normalization_v1 (BatchNo (None, 149, 149, 32) 96          conv2d[0][0]                     
__________________________________________________________________________________________________
activation (Activation)         (None, 149, 149, 32) 0           batch_normalization_v1[0][0]     
__________________________________________________________________________________________________
conv2d_1 (Conv2D)               (None, 147, 147, 32) 9216        activation[0][0]                 
__________________________________________________________________________________________________
batch_normalization_v1_1 (Batch (None, 147, 147, 32) 96          conv2d_1[0][0]                   
__________________________________________________________________________________________________
activation_1 (Activation)       (None, 147, 147, 32) 0           batch_normalization_v1_1[0][0]   
__________________________________________________________________________________________________
conv2d_2 (Conv2D)               (None, 147, 147, 64) 18432       activation_1[0][0]               
__________________________________________________________________________________________________
batch_normalization_v1_2 (Batch (None, 147, 147, 64) 192         conv2d_2[0][0]                   
__________________________________________________________________________________________________
activation_2 (Activation)       (None, 147, 147, 64) 0           batch_normalization_v1_2[0][0]   
__________________________________________________________________________________________________
max_pooling2d (MaxPooling2D)    (None, 73, 73, 64)   0           activation_2[0][0]               
__________________________________________________________________________________________________
conv2d_3 (Conv2D)               (None, 73, 73, 80)   5120        max_pooling2d[0][0]              
__________________________________________________________________________________________________
batch_normalization_v1_3 (Batch (None, 73, 73, 80)   240         conv2d_3[0][0]                   
__________________________________________________________________________________________________
activation_3 (Activation)       (None, 73, 73, 80)   0           batch_normalization_v1_3[0][0]   
__________________________________________________________________________________________________
conv2d_4 (Conv2D)               (None, 71, 71, 192)  138240      activation_3[0][0]               
__________________________________________________________________________________________________
batch_normalization_v1_4 (Batch (None, 71, 71, 192)  576         conv2d_4[0][0]                   
__________________________________________________________________________________________________
activation_4 (Activation)       (None, 71, 71, 192)  0           batch_normalization_v1_4[0][0]   
__________________________________________________________________________________________________
max_pooling2d_1 (MaxPooling2D)  (None, 35, 35, 192)  0           activation_4[0][0]               
__________________________________________________________________________________________________
conv2d_8 (Conv2D)               (None, 35, 35, 64)   12288       max_pooling2d_1[0][0]            
__________________________________________________________________________________________________
batch_normalization_v1_8 (Batch (None, 35, 35, 64)   192         conv2d_8[0][0]                   
__________________________________________________________________________________________________
activation_8 (Activation)       (None, 35, 35, 64)   0           batch_normalization_v1_8[0][0]   
__________________________________________________________________________________________________
conv2d_6 (Conv2D)               (None, 35, 35, 48)   9216        max_pooling2d_1[0][0]            
__________________________________________________________________________________________________
conv2d_9 (Conv2D)               (None, 35, 35, 96)   55296       activation_8[0][0]               
__________________________________________________________________________________________________
batch_normalization_v1_6 (Batch (None, 35, 35, 48)   144         conv2d_6[0][0]                   
__________________________________________________________________________________________________
batch_normalization_v1_9 (Batch (None, 35, 35, 96)   288         conv2d_9[0][0]                   
__________________________________________________________________________________________________
activation_6 (Activation)       (None, 35, 35, 48)   0           batch_normalization_v1_6[0][0]   
__________________________________________________________________________________________________
activation_9 (Activation)       (None, 35, 35, 96)   0           batch_normalization_v1_9[0][0]   
__________________________________________________________________________________________________
average_pooling2d (AveragePooli (None, 35, 35, 192)  0           max_pooling2d_1[0][0]            
__________________________________________________________________________________________________
conv2d_5 (Conv2D)               (None, 35, 35, 64)   12288       max_pooling2d_1[0][0]            
__________________________________________________________________________________________________
conv2d_7 (Conv2D)               (None, 35, 35, 64)   76800       activation_6[0][0]               
__________________________________________________________________________________________________
conv2d_10 (Conv2D)              (None, 35, 35, 96)   82944       activation_9[0][0]               
__________________________________________________________________________________________________
conv2d_11 (Conv2D)              (None, 35, 35, 32)   6144        average_pooling2d[0][0]          
__________________________________________________________________________________________________
batch_normalization_v1_5 (Batch (None, 35, 35, 64)   192         conv2d_5[0][0]                   
__________________________________________________________________________________________________
batch_normalization_v1_7 (Batch (None, 35, 35, 64)   192         conv2d_7[0][0]                   
__________________________________________________________________________________________________
batch_normalization_v1_10 (Batc (None, 35, 35, 96)   288         conv2d_10[0][0]                  
__________________________________________________________________________________________________
batch_normalization_v1_11 (Batc (None, 35, 35, 32)   96          conv2d_11[0][0]                  
__________________________________________________________________________________________________
activation_5 (Activation)       (None, 35, 35, 64)   0           batch_normalization_v1_5[0][0]   
__________________________________________________________________________________________________
activation_7 (Activation)       (None, 35, 35, 64)   0           batch_normalization_v1_7[0][0]   
__________________________________________________________________________________________________
activation_10 (Activation)      (None, 35, 35, 96)   0           batch_normalization_v1_10[0][0]  
__________________________________________________________________________________________________
activation_11 (Activation)      (None, 35, 35, 32)   0           batch_normalization_v1_11[0][0]  
__________________________________________________________________________________________________
mixed0 (Concatenate)            (None, 35, 35, 256)  0           activation_5[0][0]               
                                                                 activation_7[0][0]               
                                                                 activation_10[0][0]              
                                                                 activation_11[0][0]              
__________________________________________________________________________________________________
conv2d_15 (Conv2D)              (None, 35, 35, 64)   16384       mixed0[0][0]                     
__________________________________________________________________________________________________
batch_normalization_v1_15 (Batc (None, 35, 35, 64)   192         conv2d_15[0][0]                  
__________________________________________________________________________________________________
activation_15 (Activation)      (None, 35, 35, 64)   0           batch_normalization_v1_15[0][0]  
__________________________________________________________________________________________________
conv2d_13 (Conv2D)              (None, 35, 35, 48)   12288       mixed0[0][0]                     
__________________________________________________________________________________________________
conv2d_16 (Conv2D)              (None, 35, 35, 96)   55296       activation_15[0][0]              
__________________________________________________________________________________________________
batch_normalization_v1_13 (Batc (None, 35, 35, 48)   144         conv2d_13[0][0]                  
__________________________________________________________________________________________________
batch_normalization_v1_16 (Batc (None, 35, 35, 96)   288         conv2d_16[0][0]                  
__________________________________________________________________________________________________
activation_13 (Activation)      (None, 35, 35, 48)   0           batch_normalization_v1_13[0][0]  
__________________________________________________________________________________________________
activation_16 (Activation)      (None, 35, 35, 96)   0           batch_normalization_v1_16[0][0]  
__________________________________________________________________________________________________
average_pooling2d_1 (AveragePoo (None, 35, 35, 256)  0           mixed0[0][0]                     
__________________________________________________________________________________________________
conv2d_12 (Conv2D)              (None, 35, 35, 64)   16384       mixed0[0][0]                     
__________________________________________________________________________________________________
conv2d_14 (Conv2D)              (None, 35, 35, 64)   76800       activation_13[0][0]              
__________________________________________________________________________________________________
conv2d_17 (Conv2D)              (None, 35, 35, 96)   82944       activation_16[0][0]              
__________________________________________________________________________________________________
conv2d_18 (Conv2D)              (None, 35, 35, 64)   16384       average_pooling2d_1[0][0]        
__________________________________________________________________________________________________
batch_normalization_v1_12 (Batc (None, 35, 35, 64)   192         conv2d_12[0][0]                  
__________________________________________________________________________________________________
batch_normalization_v1_14 (Batc (None, 35, 35, 64)   192         conv2d_14[0][0]                  
__________________________________________________________________________________________________
batch_normalization_v1_17 (Batc (None, 35, 35, 96)   288         conv2d_17[0][0]                  
__________________________________________________________________________________________________
batch_normalization_v1_18 (Batc (None, 35, 35, 64)   192         conv2d_18[0][0]                  
__________________________________________________________________________________________________
activation_12 (Activation)      (None, 35, 35, 64)   0           batch_normalization_v1_12[0][0]  
__________________________________________________________________________________________________
activation_14 (Activation)      (None, 35, 35, 64)   0           batch_normalization_v1_14[0][0]  
__________________________________________________________________________________________________
activation_17 (Activation)      (None, 35, 35, 96)   0           batch_normalization_v1_17[0][0]  
__________________________________________________________________________________________________
activation_18 (Activation)      (None, 35, 35, 64)   0           batch_normalization_v1_18[0][0]  
__________________________________________________________________________________________________
mixed1 (Concatenate)            (None, 35, 35, 288)  0           activation_12[0][0]              
                                                                 activation_14[0][0]              
                                                                 activation_17[0][0]              
                                                                 activation_18[0][0]              
__________________________________________________________________________________________________
conv2d_22 (Conv2D)              (None, 35, 35, 64)   18432       mixed1[0][0]                     
__________________________________________________________________________________________________
batch_normalization_v1_22 (Batc (None, 35, 35, 64)   192         conv2d_22[0][0]                  
__________________________________________________________________________________________________
activation_22 (Activation)      (None, 35, 35, 64)   0           batch_normalization_v1_22[0][0]  
__________________________________________________________________________________________________
conv2d_20 (Conv2D)              (None, 35, 35, 48)   13824       mixed1[0][0]                     
__________________________________________________________________________________________________
conv2d_23 (Conv2D)              (None, 35, 35, 96)   55296       activation_22[0][0]              
__________________________________________________________________________________________________
batch_normalization_v1_20 (Batc (None, 35, 35, 48)   144         conv2d_20[0][0]                  
__________________________________________________________________________________________________
batch_normalization_v1_23 (Batc (None, 35, 35, 96)   288         conv2d_23[0][0]                  
__________________________________________________________________________________________________
activation_20 (Activation)      (None, 35, 35, 48)   0           batch_normalization_v1_20[0][0]  
__________________________________________________________________________________________________
activation_23 (Activation)      (None, 35, 35, 96)   0           batch_normalization_v1_23[0][0]  
__________________________________________________________________________________________________
average_pooling2d_2 (AveragePoo (None, 35, 35, 288)  0           mixed1[0][0]                     
__________________________________________________________________________________________________
conv2d_19 (Conv2D)              (None, 35, 35, 64)   18432       mixed1[0][0]                     
__________________________________________________________________________________________________
conv2d_21 (Conv2D)              (None, 35, 35, 64)   76800       activation_20[0][0]              
__________________________________________________________________________________________________
conv2d_24 (Conv2D)              (None, 35, 35, 96)   82944       activation_23[0][0]              
__________________________________________________________________________________________________
conv2d_25 (Conv2D)              (None, 35, 35, 64)   18432       average_pooling2d_2[0][0]        
__________________________________________________________________________________________________
batch_normalization_v1_19 (Batc (None, 35, 35, 64)   192         conv2d_19[0][0]                  
__________________________________________________________________________________________________
batch_normalization_v1_21 (Batc (None, 35, 35, 64)   192         conv2d_21[0][0]                  
__________________________________________________________________________________________________
batch_normalization_v1_24 (Batc (None, 35, 35, 96)   288         conv2d_24[0][0]                  
__________________________________________________________________________________________________
batch_normalization_v1_25 (Batc (None, 35, 35, 64)   192         conv2d_25[0][0]                  
__________________________________________________________________________________________________
activation_19 (Activation)      (None, 35, 35, 64)   0           batch_normalization_v1_19[0][0]  
__________________________________________________________________________________________________
activation_21 (Activation)      (None, 35, 35, 64)   0           batch_normalization_v1_21[0][0]  
__________________________________________________________________________________________________
activation_24 (Activation)      (None, 35, 35, 96)   0           batch_normalization_v1_24[0][0]  
__________________________________________________________________________________________________
activation_25 (Activation)      (None, 35, 35, 64)   0           batch_normalization_v1_25[0][0]  
__________________________________________________________________________________________________
mixed2 (Concatenate)            (None, 35, 35, 288)  0           activation_19[0][0]              
                                                                 activation_21[0][0]              
                                                                 activation_24[0][0]              
                                                                 activation_25[0][0]              
__________________________________________________________________________________________________
conv2d_27 (Conv2D)              (None, 35, 35, 64)   18432       mixed2[0][0]                     
__________________________________________________________________________________________________
batch_normalization_v1_27 (Batc (None, 35, 35, 64)   192         conv2d_27[0][0]                  
__________________________________________________________________________________________________
activation_27 (Activation)      (None, 35, 35, 64)   0           batch_normalization_v1_27[0][0]  
__________________________________________________________________________________________________
conv2d_28 (Conv2D)              (None, 35, 35, 96)   55296       activation_27[0][0]              
__________________________________________________________________________________________________
batch_normalization_v1_28 (Batc (None, 35, 35, 96)   288         conv2d_28[0][0]                  
__________________________________________________________________________________________________
activation_28 (Activation)      (None, 35, 35, 96)   0           batch_normalization_v1_28[0][0]  
__________________________________________________________________________________________________
conv2d_26 (Conv2D)              (None, 17, 17, 384)  995328      mixed2[0][0]                     
__________________________________________________________________________________________________
conv2d_29 (Conv2D)              (None, 17, 17, 96)   82944       activation_28[0][0]              
__________________________________________________________________________________________________
batch_normalization_v1_26 (Batc (None, 17, 17, 384)  1152        conv2d_26[0][0]                  
__________________________________________________________________________________________________
batch_normalization_v1_29 (Batc (None, 17, 17, 96)   288         conv2d_29[0][0]                  
__________________________________________________________________________________________________
activation_26 (Activation)      (None, 17, 17, 384)  0           batch_normalization_v1_26[0][0]  
__________________________________________________________________________________________________
activation_29 (Activation)      (None, 17, 17, 96)   0           batch_normalization_v1_29[0][0]  
__________________________________________________________________________________________________
max_pooling2d_2 (MaxPooling2D)  (None, 17, 17, 288)  0           mixed2[0][0]                     
__________________________________________________________________________________________________
mixed3 (Concatenate)            (None, 17, 17, 768)  0           activation_26[0][0]              
                                                                 activation_29[0][0]              
                                                                 max_pooling2d_2[0][0]            
__________________________________________________________________________________________________
conv2d_34 (Conv2D)              (None, 17, 17, 128)  98304       mixed3[0][0]                     
__________________________________________________________________________________________________
batch_normalization_v1_34 (Batc (None, 17, 17, 128)  384         conv2d_34[0][0]                  
__________________________________________________________________________________________________
activation_34 (Activation)      (None, 17, 17, 128)  0           batch_normalization_v1_34[0][0]  
__________________________________________________________________________________________________
conv2d_35 (Conv2D)              (None, 17, 17, 128)  114688      activation_34[0][0]              
__________________________________________________________________________________________________
batch_normalization_v1_35 (Batc (None, 17, 17, 128)  384         conv2d_35[0][0]                  
__________________________________________________________________________________________________
activation_35 (Activation)      (None, 17, 17, 128)  0           batch_normalization_v1_35[0][0]  
__________________________________________________________________________________________________
conv2d_31 (Conv2D)              (None, 17, 17, 128)  98304       mixed3[0][0]                     
__________________________________________________________________________________________________
conv2d_36 (Conv2D)              (None, 17, 17, 128)  114688      activation_35[0][0]              
__________________________________________________________________________________________________
batch_normalization_v1_31 (Batc (None, 17, 17, 128)  384         conv2d_31[0][0]                  
__________________________________________________________________________________________________
batch_normalization_v1_36 (Batc (None, 17, 17, 128)  384         conv2d_36[0][0]                  
__________________________________________________________________________________________________
activation_31 (Activation)      (None, 17, 17, 128)  0           batch_normalization_v1_31[0][0]  
__________________________________________________________________________________________________
activation_36 (Activation)      (None, 17, 17, 128)  0           batch_normalization_v1_36[0][0]  
__________________________________________________________________________________________________
conv2d_32 (Conv2D)              (None, 17, 17, 128)  114688      activation_31[0][0]              
__________________________________________________________________________________________________
conv2d_37 (Conv2D)              (None, 17, 17, 128)  114688      activation_36[0][0]              
__________________________________________________________________________________________________
batch_normalization_v1_32 (Batc (None, 17, 17, 128)  384         conv2d_32[0][0]                  
__________________________________________________________________________________________________
batch_normalization_v1_37 (Batc (None, 17, 17, 128)  384         conv2d_37[0][0]                  
__________________________________________________________________________________________________
activation_32 (Activation)      (None, 17, 17, 128)  0           batch_normalization_v1_32[0][0]  
__________________________________________________________________________________________________
activation_37 (Activation)      (None, 17, 17, 128)  0           batch_normalization_v1_37[0][0]  
__________________________________________________________________________________________________
average_pooling2d_3 (AveragePoo (None, 17, 17, 768)  0           mixed3[0][0]                     
__________________________________________________________________________________________________
conv2d_30 (Conv2D)              (None, 17, 17, 192)  147456      mixed3[0][0]                     
__________________________________________________________________________________________________
conv2d_33 (Conv2D)              (None, 17, 17, 192)  172032      activation_32[0][0]              
__________________________________________________________________________________________________
conv2d_38 (Conv2D)              (None, 17, 17, 192)  172032      activation_37[0][0]              
__________________________________________________________________________________________________
conv2d_39 (Conv2D)              (None, 17, 17, 192)  147456      average_pooling2d_3[0][0]        
__________________________________________________________________________________________________
batch_normalization_v1_30 (Batc (None, 17, 17, 192)  576         conv2d_30[0][0]                  
__________________________________________________________________________________________________
batch_normalization_v1_33 (Batc (None, 17, 17, 192)  576         conv2d_33[0][0]                  
__________________________________________________________________________________________________
batch_normalization_v1_38 (Batc (None, 17, 17, 192)  576         conv2d_38[0][0]                  
__________________________________________________________________________________________________
batch_normalization_v1_39 (Batc (None, 17, 17, 192)  576         conv2d_39[0][0]                  
__________________________________________________________________________________________________
activation_30 (Activation)      (None, 17, 17, 192)  0           batch_normalization_v1_30[0][0]  
__________________________________________________________________________________________________
activation_33 (Activation)      (None, 17, 17, 192)  0           batch_normalization_v1_33[0][0]  
__________________________________________________________________________________________________
activation_38 (Activation)      (None, 17, 17, 192)  0           batch_normalization_v1_38[0][0]  
__________________________________________________________________________________________________
activation_39 (Activation)      (None, 17, 17, 192)  0           batch_normalization_v1_39[0][0]  
__________________________________________________________________________________________________
mixed4 (Concatenate)            (None, 17, 17, 768)  0           activation_30[0][0]              
                                                                 activation_33[0][0]              
                                                                 activation_38[0][0]              
                                                                 activation_39[0][0]              
__________________________________________________________________________________________________
conv2d_44 (Conv2D)              (None, 17, 17, 160)  122880      mixed4[0][0]                     
__________________________________________________________________________________________________
batch_normalization_v1_44 (Batc (None, 17, 17, 160)  480         conv2d_44[0][0]                  
__________________________________________________________________________________________________
activation_44 (Activation)      (None, 17, 17, 160)  0           batch_normalization_v1_44[0][0]  
__________________________________________________________________________________________________
conv2d_45 (Conv2D)              (None, 17, 17, 160)  179200      activation_44[0][0]              
__________________________________________________________________________________________________
batch_normalization_v1_45 (Batc (None, 17, 17, 160)  480         conv2d_45[0][0]                  
__________________________________________________________________________________________________
activation_45 (Activation)      (None, 17, 17, 160)  0           batch_normalization_v1_45[0][0]  
__________________________________________________________________________________________________
conv2d_41 (Conv2D)              (None, 17, 17, 160)  122880      mixed4[0][0]                     
__________________________________________________________________________________________________
conv2d_46 (Conv2D)              (None, 17, 17, 160)  179200      activation_45[0][0]              
__________________________________________________________________________________________________
batch_normalization_v1_41 (Batc (None, 17, 17, 160)  480         conv2d_41[0][0]                  
__________________________________________________________________________________________________
batch_normalization_v1_46 (Batc (None, 17, 17, 160)  480         conv2d_46[0][0]                  
__________________________________________________________________________________________________
activation_41 (Activation)      (None, 17, 17, 160)  0           batch_normalization_v1_41[0][0]  
__________________________________________________________________________________________________
activation_46 (Activation)      (None, 17, 17, 160)  0           batch_normalization_v1_46[0][0]  
__________________________________________________________________________________________________
conv2d_42 (Conv2D)              (None, 17, 17, 160)  179200      activation_41[0][0]              
__________________________________________________________________________________________________
conv2d_47 (Conv2D)              (None, 17, 17, 160)  179200      activation_46[0][0]              
__________________________________________________________________________________________________
batch_normalization_v1_42 (Batc (None, 17, 17, 160)  480         conv2d_42[0][0]                  
__________________________________________________________________________________________________
batch_normalization_v1_47 (Batc (None, 17, 17, 160)  480         conv2d_47[0][0]                  
__________________________________________________________________________________________________
activation_42 (Activation)      (None, 17, 17, 160)  0           batch_normalization_v1_42[0][0]  
__________________________________________________________________________________________________
activation_47 (Activation)      (None, 17, 17, 160)  0           batch_normalization_v1_47[0][0]  
__________________________________________________________________________________________________
average_pooling2d_4 (AveragePoo (None, 17, 17, 768)  0           mixed4[0][0]                     
__________________________________________________________________________________________________
conv2d_40 (Conv2D)              (None, 17, 17, 192)  147456      mixed4[0][0]                     
__________________________________________________________________________________________________
conv2d_43 (Conv2D)              (None, 17, 17, 192)  215040      activation_42[0][0]              
__________________________________________________________________________________________________
conv2d_48 (Conv2D)              (None, 17, 17, 192)  215040      activation_47[0][0]              
__________________________________________________________________________________________________
conv2d_49 (Conv2D)              (None, 17, 17, 192)  147456      average_pooling2d_4[0][0]        
__________________________________________________________________________________________________
batch_normalization_v1_40 (Batc (None, 17, 17, 192)  576         conv2d_40[0][0]                  
__________________________________________________________________________________________________
batch_normalization_v1_43 (Batc (None, 17, 17, 192)  576         conv2d_43[0][0]                  
__________________________________________________________________________________________________
batch_normalization_v1_48 (Batc (None, 17, 17, 192)  576         conv2d_48[0][0]                  
__________________________________________________________________________________________________
batch_normalization_v1_49 (Batc (None, 17, 17, 192)  576         conv2d_49[0][0]                  
__________________________________________________________________________________________________
activation_40 (Activation)      (None, 17, 17, 192)  0           batch_normalization_v1_40[0][0]  
__________________________________________________________________________________________________
activation_43 (Activation)      (None, 17, 17, 192)  0           batch_normalization_v1_43[0][0]  
__________________________________________________________________________________________________
activation_48 (Activation)      (None, 17, 17, 192)  0           batch_normalization_v1_48[0][0]  
__________________________________________________________________________________________________
activation_49 (Activation)      (None, 17, 17, 192)  0           batch_normalization_v1_49[0][0]  
__________________________________________________________________________________________________
mixed5 (Concatenate)            (None, 17, 17, 768)  0           activation_40[0][0]              
                                                                 activation_43[0][0]              
                                                                 activation_48[0][0]              
                                                                 activation_49[0][0]              
__________________________________________________________________________________________________
conv2d_54 (Conv2D)              (None, 17, 17, 160)  122880      mixed5[0][0]                     
__________________________________________________________________________________________________
batch_normalization_v1_54 (Batc (None, 17, 17, 160)  480         conv2d_54[0][0]                  
__________________________________________________________________________________________________
activation_54 (Activation)      (None, 17, 17, 160)  0           batch_normalization_v1_54[0][0]  
__________________________________________________________________________________________________
conv2d_55 (Conv2D)              (None, 17, 17, 160)  179200      activation_54[0][0]              
__________________________________________________________________________________________________
batch_normalization_v1_55 (Batc (None, 17, 17, 160)  480         conv2d_55[0][0]                  
__________________________________________________________________________________________________
activation_55 (Activation)      (None, 17, 17, 160)  0           batch_normalization_v1_55[0][0]  
__________________________________________________________________________________________________
conv2d_51 (Conv2D)              (None, 17, 17, 160)  122880      mixed5[0][0]                     
__________________________________________________________________________________________________
conv2d_56 (Conv2D)              (None, 17, 17, 160)  179200      activation_55[0][0]              
__________________________________________________________________________________________________
batch_normalization_v1_51 (Batc (None, 17, 17, 160)  480         conv2d_51[0][0]                  
__________________________________________________________________________________________________
batch_normalization_v1_56 (Batc (None, 17, 17, 160)  480         conv2d_56[0][0]                  
__________________________________________________________________________________________________
activation_51 (Activation)      (None, 17, 17, 160)  0           batch_normalization_v1_51[0][0]  
__________________________________________________________________________________________________
activation_56 (Activation)      (None, 17, 17, 160)  0           batch_normalization_v1_56[0][0]  
__________________________________________________________________________________________________
conv2d_52 (Conv2D)              (None, 17, 17, 160)  179200      activation_51[0][0]              
__________________________________________________________________________________________________
conv2d_57 (Conv2D)              (None, 17, 17, 160)  179200      activation_56[0][0]              
__________________________________________________________________________________________________
batch_normalization_v1_52 (Batc (None, 17, 17, 160)  480         conv2d_52[0][0]                  
__________________________________________________________________________________________________
batch_normalization_v1_57 (Batc (None, 17, 17, 160)  480         conv2d_57[0][0]                  
__________________________________________________________________________________________________
activation_52 (Activation)      (None, 17, 17, 160)  0           batch_normalization_v1_52[0][0]  
__________________________________________________________________________________________________
activation_57 (Activation)      (None, 17, 17, 160)  0           batch_normalization_v1_57[0][0]  
__________________________________________________________________________________________________
average_pooling2d_5 (AveragePoo (None, 17, 17, 768)  0           mixed5[0][0]                     
__________________________________________________________________________________________________
conv2d_50 (Conv2D)              (None, 17, 17, 192)  147456      mixed5[0][0]                     
__________________________________________________________________________________________________
conv2d_53 (Conv2D)              (None, 17, 17, 192)  215040      activation_52[0][0]              
__________________________________________________________________________________________________
conv2d_58 (Conv2D)              (None, 17, 17, 192)  215040      activation_57[0][0]              
__________________________________________________________________________________________________
conv2d_59 (Conv2D)              (None, 17, 17, 192)  147456      average_pooling2d_5[0][0]        
__________________________________________________________________________________________________
batch_normalization_v1_50 (Batc (None, 17, 17, 192)  576         conv2d_50[0][0]                  
__________________________________________________________________________________________________
batch_normalization_v1_53 (Batc (None, 17, 17, 192)  576         conv2d_53[0][0]                  
__________________________________________________________________________________________________
batch_normalization_v1_58 (Batc (None, 17, 17, 192)  576         conv2d_58[0][0]                  
__________________________________________________________________________________________________
batch_normalization_v1_59 (Batc (None, 17, 17, 192)  576         conv2d_59[0][0]                  
__________________________________________________________________________________________________
activation_50 (Activation)      (None, 17, 17, 192)  0           batch_normalization_v1_50[0][0]  
__________________________________________________________________________________________________
activation_53 (Activation)      (None, 17, 17, 192)  0           batch_normalization_v1_53[0][0]  
__________________________________________________________________________________________________
activation_58 (Activation)      (None, 17, 17, 192)  0           batch_normalization_v1_58[0][0]  
__________________________________________________________________________________________________
activation_59 (Activation)      (None, 17, 17, 192)  0           batch_normalization_v1_59[0][0]  
__________________________________________________________________________________________________
mixed6 (Concatenate)            (None, 17, 17, 768)  0           activation_50[0][0]              
                                                                 activation_53[0][0]              
                                                                 activation_58[0][0]              
                                                                 activation_59[0][0]              
__________________________________________________________________________________________________
conv2d_64 (Conv2D)              (None, 17, 17, 192)  147456      mixed6[0][0]                     
__________________________________________________________________________________________________
batch_normalization_v1_64 (Batc (None, 17, 17, 192)  576         conv2d_64[0][0]                  
__________________________________________________________________________________________________
activation_64 (Activation)      (None, 17, 17, 192)  0           batch_normalization_v1_64[0][0]  
__________________________________________________________________________________________________
conv2d_65 (Conv2D)              (None, 17, 17, 192)  258048      activation_64[0][0]              
__________________________________________________________________________________________________
batch_normalization_v1_65 (Batc (None, 17, 17, 192)  576         conv2d_65[0][0]                  
__________________________________________________________________________________________________
activation_65 (Activation)      (None, 17, 17, 192)  0           batch_normalization_v1_65[0][0]  
__________________________________________________________________________________________________
conv2d_61 (Conv2D)              (None, 17, 17, 192)  147456      mixed6[0][0]                     
__________________________________________________________________________________________________
conv2d_66 (Conv2D)              (None, 17, 17, 192)  258048      activation_65[0][0]              
__________________________________________________________________________________________________
batch_normalization_v1_61 (Batc (None, 17, 17, 192)  576         conv2d_61[0][0]                  
__________________________________________________________________________________________________
batch_normalization_v1_66 (Batc (None, 17, 17, 192)  576         conv2d_66[0][0]                  
__________________________________________________________________________________________________
activation_61 (Activation)      (None, 17, 17, 192)  0           batch_normalization_v1_61[0][0]  
__________________________________________________________________________________________________
activation_66 (Activation)      (None, 17, 17, 192)  0           batch_normalization_v1_66[0][0]  
__________________________________________________________________________________________________
conv2d_62 (Conv2D)              (None, 17, 17, 192)  258048      activation_61[0][0]              
__________________________________________________________________________________________________
conv2d_67 (Conv2D)              (None, 17, 17, 192)  258048      activation_66[0][0]              
__________________________________________________________________________________________________
batch_normalization_v1_62 (Batc (None, 17, 17, 192)  576         conv2d_62[0][0]                  
__________________________________________________________________________________________________
batch_normalization_v1_67 (Batc (None, 17, 17, 192)  576         conv2d_67[0][0]                  
__________________________________________________________________________________________________
activation_62 (Activation)      (None, 17, 17, 192)  0           batch_normalization_v1_62[0][0]  
__________________________________________________________________________________________________
activation_67 (Activation)      (None, 17, 17, 192)  0           batch_normalization_v1_67[0][0]  
__________________________________________________________________________________________________
average_pooling2d_6 (AveragePoo (None, 17, 17, 768)  0           mixed6[0][0]                     
__________________________________________________________________________________________________
conv2d_60 (Conv2D)              (None, 17, 17, 192)  147456      mixed6[0][0]                     
__________________________________________________________________________________________________
conv2d_63 (Conv2D)              (None, 17, 17, 192)  258048      activation_62[0][0]              
__________________________________________________________________________________________________
conv2d_68 (Conv2D)              (None, 17, 17, 192)  258048      activation_67[0][0]              
__________________________________________________________________________________________________
conv2d_69 (Conv2D)              (None, 17, 17, 192)  147456      average_pooling2d_6[0][0]        
__________________________________________________________________________________________________
batch_normalization_v1_60 (Batc (None, 17, 17, 192)  576         conv2d_60[0][0]                  
__________________________________________________________________________________________________
batch_normalization_v1_63 (Batc (None, 17, 17, 192)  576         conv2d_63[0][0]                  
__________________________________________________________________________________________________
batch_normalization_v1_68 (Batc (None, 17, 17, 192)  576         conv2d_68[0][0]                  
__________________________________________________________________________________________________
batch_normalization_v1_69 (Batc (None, 17, 17, 192)  576         conv2d_69[0][0]                  
__________________________________________________________________________________________________
activation_60 (Activation)      (None, 17, 17, 192)  0           batch_normalization_v1_60[0][0]  
__________________________________________________________________________________________________
activation_63 (Activation)      (None, 17, 17, 192)  0           batch_normalization_v1_63[0][0]  
__________________________________________________________________________________________________
activation_68 (Activation)      (None, 17, 17, 192)  0           batch_normalization_v1_68[0][0]  
__________________________________________________________________________________________________
activation_69 (Activation)      (None, 17, 17, 192)  0           batch_normalization_v1_69[0][0]  
__________________________________________________________________________________________________
mixed7 (Concatenate)            (None, 17, 17, 768)  0           activation_60[0][0]              
                                                                 activation_63[0][0]              
                                                                 activation_68[0][0]              
                                                                 activation_69[0][0]              
__________________________________________________________________________________________________
conv2d_72 (Conv2D)              (None, 17, 17, 192)  147456      mixed7[0][0]                     
__________________________________________________________________________________________________
batch_normalization_v1_72 (Batc (None, 17, 17, 192)  576         conv2d_72[0][0]                  
__________________________________________________________________________________________________
activation_72 (Activation)      (None, 17, 17, 192)  0           batch_normalization_v1_72[0][0]  
__________________________________________________________________________________________________
conv2d_73 (Conv2D)              (None, 17, 17, 192)  258048      activation_72[0][0]              
__________________________________________________________________________________________________
batch_normalization_v1_73 (Batc (None, 17, 17, 192)  576         conv2d_73[0][0]                  
__________________________________________________________________________________________________
activation_73 (Activation)      (None, 17, 17, 192)  0           batch_normalization_v1_73[0][0]  
__________________________________________________________________________________________________
conv2d_70 (Conv2D)              (None, 17, 17, 192)  147456      mixed7[0][0]                     
__________________________________________________________________________________________________
conv2d_74 (Conv2D)              (None, 17, 17, 192)  258048      activation_73[0][0]              
__________________________________________________________________________________________________
batch_normalization_v1_70 (Batc (None, 17, 17, 192)  576         conv2d_70[0][0]                  
__________________________________________________________________________________________________
batch_normalization_v1_74 (Batc (None, 17, 17, 192)  576         conv2d_74[0][0]                  
__________________________________________________________________________________________________
activation_70 (Activation)      (None, 17, 17, 192)  0           batch_normalization_v1_70[0][0]  
__________________________________________________________________________________________________
activation_74 (Activation)      (None, 17, 17, 192)  0           batch_normalization_v1_74[0][0]  
__________________________________________________________________________________________________
conv2d_71 (Conv2D)              (None, 8, 8, 320)    552960      activation_70[0][0]              
__________________________________________________________________________________________________
conv2d_75 (Conv2D)              (None, 8, 8, 192)    331776      activation_74[0][0]              
__________________________________________________________________________________________________
batch_normalization_v1_71 (Batc (None, 8, 8, 320)    960         conv2d_71[0][0]                  
__________________________________________________________________________________________________
batch_normalization_v1_75 (Batc (None, 8, 8, 192)    576         conv2d_75[0][0]                  
__________________________________________________________________________________________________
activation_71 (Activation)      (None, 8, 8, 320)    0           batch_normalization_v1_71[0][0]  
__________________________________________________________________________________________________
activation_75 (Activation)      (None, 8, 8, 192)    0           batch_normalization_v1_75[0][0]  
__________________________________________________________________________________________________
max_pooling2d_3 (MaxPooling2D)  (None, 8, 8, 768)    0           mixed7[0][0]                     
__________________________________________________________________________________________________
mixed8 (Concatenate)            (None, 8, 8, 1280)   0           activation_71[0][0]              
                                                                 activation_75[0][0]              
                                                                 max_pooling2d_3[0][0]            
__________________________________________________________________________________________________
conv2d_80 (Conv2D)              (None, 8, 8, 448)    573440      mixed8[0][0]                     
__________________________________________________________________________________________________
batch_normalization_v1_80 (Batc (None, 8, 8, 448)    1344        conv2d_80[0][0]                  
__________________________________________________________________________________________________
activation_80 (Activation)      (None, 8, 8, 448)    0           batch_normalization_v1_80[0][0]  
__________________________________________________________________________________________________
conv2d_77 (Conv2D)              (None, 8, 8, 384)    491520      mixed8[0][0]                     
__________________________________________________________________________________________________
conv2d_81 (Conv2D)              (None, 8, 8, 384)    1548288     activation_80[0][0]              
__________________________________________________________________________________________________
batch_normalization_v1_77 (Batc (None, 8, 8, 384)    1152        conv2d_77[0][0]                  
__________________________________________________________________________________________________
batch_normalization_v1_81 (Batc (None, 8, 8, 384)    1152        conv2d_81[0][0]                  
__________________________________________________________________________________________________
activation_77 (Activation)      (None, 8, 8, 384)    0           batch_normalization_v1_77[0][0]  
__________________________________________________________________________________________________
activation_81 (Activation)      (None, 8, 8, 384)    0           batch_normalization_v1_81[0][0]  
__________________________________________________________________________________________________
conv2d_78 (Conv2D)              (None, 8, 8, 384)    442368      activation_77[0][0]              
__________________________________________________________________________________________________
conv2d_79 (Conv2D)              (None, 8, 8, 384)    442368      activation_77[0][0]              
__________________________________________________________________________________________________
conv2d_82 (Conv2D)              (None, 8, 8, 384)    442368      activation_81[0][0]              
__________________________________________________________________________________________________
conv2d_83 (Conv2D)              (None, 8, 8, 384)    442368      activation_81[0][0]              
__________________________________________________________________________________________________
average_pooling2d_7 (AveragePoo (None, 8, 8, 1280)   0           mixed8[0][0]                     
__________________________________________________________________________________________________
conv2d_76 (Conv2D)              (None, 8, 8, 320)    409600      mixed8[0][0]                     
__________________________________________________________________________________________________
batch_normalization_v1_78 (Batc (None, 8, 8, 384)    1152        conv2d_78[0][0]                  
__________________________________________________________________________________________________
batch_normalization_v1_79 (Batc (None, 8, 8, 384)    1152        conv2d_79[0][0]                  
__________________________________________________________________________________________________
batch_normalization_v1_82 (Batc (None, 8, 8, 384)    1152        conv2d_82[0][0]                  
__________________________________________________________________________________________________
batch_normalization_v1_83 (Batc (None, 8, 8, 384)    1152        conv2d_83[0][0]                  
__________________________________________________________________________________________________
conv2d_84 (Conv2D)              (None, 8, 8, 192)    245760      average_pooling2d_7[0][0]        
__________________________________________________________________________________________________
batch_normalization_v1_76 (Batc (None, 8, 8, 320)    960         conv2d_76[0][0]                  
__________________________________________________________________________________________________
activation_78 (Activation)      (None, 8, 8, 384)    0           batch_normalization_v1_78[0][0]  
__________________________________________________________________________________________________
activation_79 (Activation)      (None, 8, 8, 384)    0           batch_normalization_v1_79[0][0]  
__________________________________________________________________________________________________
activation_82 (Activation)      (None, 8, 8, 384)    0           batch_normalization_v1_82[0][0]  
__________________________________________________________________________________________________
activation_83 (Activation)      (None, 8, 8, 384)    0           batch_normalization_v1_83[0][0]  
__________________________________________________________________________________________________
batch_normalization_v1_84 (Batc (None, 8, 8, 192)    576         conv2d_84[0][0]                  
__________________________________________________________________________________________________
activation_76 (Activation)      (None, 8, 8, 320)    0           batch_normalization_v1_76[0][0]  
__________________________________________________________________________________________________
mixed9_0 (Concatenate)          (None, 8, 8, 768)    0           activation_78[0][0]              
                                                                 activation_79[0][0]              
__________________________________________________________________________________________________
concatenate (Concatenate)       (None, 8, 8, 768)    0           activation_82[0][0]              
                                                                 activation_83[0][0]              
__________________________________________________________________________________________________
activation_84 (Activation)      (None, 8, 8, 192)    0           batch_normalization_v1_84[0][0]  
__________________________________________________________________________________________________
mixed9 (Concatenate)            (None, 8, 8, 2048)   0           activation_76[0][0]              
                                                                 mixed9_0[0][0]                   
                                                                 concatenate[0][0]                
                                                                 activation_84[0][0]              
__________________________________________________________________________________________________
conv2d_89 (Conv2D)              (None, 8, 8, 448)    917504      mixed9[0][0]                     
__________________________________________________________________________________________________
batch_normalization_v1_89 (Batc (None, 8, 8, 448)    1344        conv2d_89[0][0]                  
__________________________________________________________________________________________________
activation_89 (Activation)      (None, 8, 8, 448)    0           batch_normalization_v1_89[0][0]  
__________________________________________________________________________________________________
conv2d_86 (Conv2D)              (None, 8, 8, 384)    786432      mixed9[0][0]                     
__________________________________________________________________________________________________
conv2d_90 (Conv2D)              (None, 8, 8, 384)    1548288     activation_89[0][0]              
__________________________________________________________________________________________________
batch_normalization_v1_86 (Batc (None, 8, 8, 384)    1152        conv2d_86[0][0]                  
__________________________________________________________________________________________________
batch_normalization_v1_90 (Batc (None, 8, 8, 384)    1152        conv2d_90[0][0]                  
__________________________________________________________________________________________________
activation_86 (Activation)      (None, 8, 8, 384)    0           batch_normalization_v1_86[0][0]  
__________________________________________________________________________________________________
activation_90 (Activation)      (None, 8, 8, 384)    0           batch_normalization_v1_90[0][0]  
__________________________________________________________________________________________________
conv2d_87 (Conv2D)              (None, 8, 8, 384)    442368      activation_86[0][0]              
__________________________________________________________________________________________________
conv2d_88 (Conv2D)              (None, 8, 8, 384)    442368      activation_86[0][0]              
__________________________________________________________________________________________________
conv2d_91 (Conv2D)              (None, 8, 8, 384)    442368      activation_90[0][0]              
__________________________________________________________________________________________________
conv2d_92 (Conv2D)              (None, 8, 8, 384)    442368      activation_90[0][0]              
__________________________________________________________________________________________________
average_pooling2d_8 (AveragePoo (None, 8, 8, 2048)   0           mixed9[0][0]                     
__________________________________________________________________________________________________
conv2d_85 (Conv2D)              (None, 8, 8, 320)    655360      mixed9[0][0]                     
__________________________________________________________________________________________________
batch_normalization_v1_87 (Batc (None, 8, 8, 384)    1152        conv2d_87[0][0]                  
__________________________________________________________________________________________________
batch_normalization_v1_88 (Batc (None, 8, 8, 384)    1152        conv2d_88[0][0]                  
__________________________________________________________________________________________________
batch_normalization_v1_91 (Batc (None, 8, 8, 384)    1152        conv2d_91[0][0]                  
__________________________________________________________________________________________________
batch_normalization_v1_92 (Batc (None, 8, 8, 384)    1152        conv2d_92[0][0]                  
__________________________________________________________________________________________________
conv2d_93 (Conv2D)              (None, 8, 8, 192)    393216      average_pooling2d_8[0][0]        
__________________________________________________________________________________________________
batch_normalization_v1_85 (Batc (None, 8, 8, 320)    960         conv2d_85[0][0]                  
__________________________________________________________________________________________________
activation_87 (Activation)      (None, 8, 8, 384)    0           batch_normalization_v1_87[0][0]  
__________________________________________________________________________________________________
activation_88 (Activation)      (None, 8, 8, 384)    0           batch_normalization_v1_88[0][0]  
__________________________________________________________________________________________________
activation_91 (Activation)      (None, 8, 8, 384)    0           batch_normalization_v1_91[0][0]  
__________________________________________________________________________________________________
activation_92 (Activation)      (None, 8, 8, 384)    0           batch_normalization_v1_92[0][0]  
__________________________________________________________________________________________________
batch_normalization_v1_93 (Batc (None, 8, 8, 192)    576         conv2d_93[0][0]                  
__________________________________________________________________________________________________
activation_85 (Activation)      (None, 8, 8, 320)    0           batch_normalization_v1_85[0][0]  
__________________________________________________________________________________________________
mixed9_1 (Concatenate)          (None, 8, 8, 768)    0           activation_87[0][0]              
                                                                 activation_88[0][0]              
__________________________________________________________________________________________________
concatenate_1 (Concatenate)     (None, 8, 8, 768)    0           activation_91[0][0]              
                                                                 activation_92[0][0]              
__________________________________________________________________________________________________
activation_93 (Activation)      (None, 8, 8, 192)    0           batch_normalization_v1_93[0][0]  
__________________________________________________________________________________________________
mixed10 (Concatenate)           (None, 8, 8, 2048)   0           activation_85[0][0]              
                                                                 mixed9_1[0][0]                   
                                                                 concatenate_1[0][0]              
                                                                 activation_93[0][0]              
__________________________________________________________________________________________________
avg_pool (GlobalAveragePooling2 (None, 2048)         0           mixed10[0][0]                    
__________________________________________________________________________________________________
dropout (Dropout)               (None, 2048)         0           avg_pool[0][0]                   
__________________________________________________________________________________________________
dense (Dense)                   (None, 195)          399555      dropout[0][0]                    
==================================================================================================
Total params: 22,202,339
Trainable params: 22,167,907
Non-trainable params: 34,432
__________________________________________________________________________________________________
